model_2.pth (torch, 396511 bytes, 3 tensors)

layer1.weight f4 [175, 562]
0	0xbc5ac632	-0.0133529175
1	0xbd1d7143	-0.038438093
2	0x3d1b0ebc	0.03785585
3	0xbb9d3496	-0.0047975285
4	0xbc9092fd	-0.017648214
5	0xbbabebe8	-0.005246628
6	0x3c822c7c	0.015890352
7	0xbcbc561d	-0.02299028
8	0x3c9570cf	0.018242268
9	0x3ca298d0	0.019848257
10	0x3c89c58f	0.016817836
11	0x3d07e7ee	0.03318017
12	0xbc7849d6	-0.015154323
13	0x3cb6f5f9	0.022334086
14	0x3c535d63	0.012900683
15	0x3c451903	0.012029889
16	0x3c63675f	0.013879626
17	0xbc5e5da3	-0.013572129
18	0x3bce4690	0.006295033
19	0xbb8b8987	-0.004258338
20	0x3ccc18da	0.024914194
21	0xbd253a23	-0.040338647
22	0xbc7f30eb	-0.015575628
23	0xbd3fc65f	-0.04682004
24	0xbc408e27	-0.011752642
25	0xbd32d4ba	-0.043659903
26	0xbcff2a3a	-0.031148065
27	0xbd244129	-0.040101204
28	0xbb794c27	-0.0038039775
29	0x3c2bfb7b	0.010496969
30	0x3b36a826	0.002787122
31	0xbd0ce5e8	-0.034398943
32	0x3d026630	0.031835735
33	0x3ae94517	0.001779708
34	0xbb5606d8	-0.0032657888
35	0xbd16da33	-0.036829185
36	0x3d192def	0.03739732
37	0xbc9994d3	-0.018747723
38	0x3a91a6d3	0.001111234
39	0xbbabfbd6	-0.005248527
40	0xbd13515a	-0.035966255
41	0x3d0030e5	0.03129663
42	0x3bc46b52	0.005994239
43	0xbcba726d	-0.02275964
44	0xbc272a44	-0.010202948
45	0xbcab7fa6	-0.020934891
46	0x3c0dfe47	0.0086665815
47	0x3c35c2dd	0.011093822
48	0x3d20388a	0.03911642
49	0xbcf91363	-0.030404752
50	0x3c2e450c	0.010636579
51	0x3cb8b1d7	0.022545738
52	0xbcc7b2a1	-0.02437717
53	0xbd0c8c3c	-0.034313425
54	0xbcea297b	-0.028584233
55	0x3d1beec9	0.03806952
56	0x3cd15629	0.02555378
57	0xbcbd958c	-0.023142599
58	0x3d11bb48	0.035578996
59	0xbb44b6ce	-0.0030016187
60	0xbcd2de61	-0.025740804
61	0xbc00de85	-0.007865553
62	0xbd07efcc	-0.033187672
63	0x3c811263	0.015755838
64	0x3d35e80b	0.044410747
65	0x3d0e6826	0.034767292
66	0x3ce3e018	0.027816817
67	0xbcbaddde	-0.022810873
68	0xbd00cc9d	-0.031445134
69	0xbc0dddc2	-0.008658828
70	0xbbebaa00	-0.0071918964
71	0xbc960d9f	-0.018317042
72	0x3c971644	0.018443234
73	0xbd240f67	-0.04005375
74	0x3b608cd1	0.003426362
75	0x3bda9715	0.0066708424
76	0x3c5a0b09	0.013308295
77	0xbbbf8c02	-0.0058455477
78	0xbc2f1aea	-0.010687569
79	0x3c1009bd	0.008791384
80	0xbd258dae	-0.04041832
81	0x3c9f288e	0.019428518
82	0x3be24113	0.00690473
83	0x3d0ae866	0.03391304
84	0xb9e0aa53	-0.0004285151
85	0xbcb84d0e	-0.02249768
86	0xbd227deb	-0.039670866
87	0xbc5fbb0e	-0.013655437
88	0xbcf5a3aa	-0.029985268
89	0x3d2069c4	0.039163366
90	0x3d010a6e	0.031504087
91	0x3d0a5c99	0.033779714
92	0xbcb6334a	-0.022241253
93	0x3d1bce85	0.03803875
94	0x3d318720	0.043341756
95	0xba79ca16	-0.00095287093
96	0x3c865eaa	0.016402561
97	0x3c4c1e49	0.012458392
98	0xbc91fff7	-0.017822249
99	0x3c2afe3f	0.010436594
100	0x3c057151	0.0081446925
101	0x3ce086ec	0.027408086
102	0x3d4210a6	0.04737916
103	0xbd01292d	-0.03153341
104	0x3ca37938	0.019955263
105	0xbcd610c8	-0.026131049
106	0xbd361fc1	-0.044463877
107	0xbbb5550b	-0.0055338196
108	0xbcc945a6	-0.024569344
109	0x3ce5d75b	0.028056791
110	0x3b1c9c86	0.0023897006
111	0x3d053d70	0.032529294
112	0xbbd7d125	-0.0065862113
113	0x3d256b33	0.040385436
114	0xbb041353	-0.002015312
115	0x3cb701c8	0.022339717
116	0xbd1613cf	-0.036639985
117	0x3cee9460	0.029123485
118	0xbcce32da	-0.025170732
119	0x39a9cf84	0.00032388803
120	0xbc8eeb39	-0.017446147
121	0x3d0c024d	0.03418188
122	0x3c823867	0.015896035
123	0xbaac55de	-0.0013148149
124	0x3d25ac9c	0.040447816
125	0xbb6a5345	-0.00357552
126	0x3ccc66c7	0.024951352
127	0xbd0c312f	-0.034226593
128	0x3c4aed37	0.012385658
129	0xbb43039e	-0.0029756795
130	0x3c8b87d3	0.01703254
131	0x3c663152	0.014049845
132	0x3bbd9beb	0.005786409
133	0xbbc7ff2c	-0.006103417
134	0x3abd1257	0.0014425021
135	0xbc2327ab	-0.009958188
136	0xbbf999b1	-0.0076171984
137	0x3cf098a7	0.029369665
138	0x3c9ccb74	0.019139983
139	0xbc320784	-0.01086605
140	0xbca8adac	-0.020590626
141	0xbd14e34a	-0.036349572
142	0x3c193a5a	0.009352291
143	0x3ad0f3d8	0.0015941812
144	0xbd220480	-0.039555073
145	0xbd2ba1e7	-0.04190245
146	0x3c1b2cc8	0.009471126
147	0x3cbffe1b	0.023436597
148	0x3cff1620	0.03113848
149	0x3c1304bc	0.008973297
150	0xbd35d10f	-0.044388827
151	0x3b210548	0.0024569798
152	0x3c91aa76	0.017781477
153	0x3b5d3e7e	0.0033759172
154	0xbcf432ee	-0.029809441
155	0x3cc049a8	0.023472622
156	0xbc0944d5	-0.008378227
157	0x3c40921a	0.011753583
158	0x3cbc2afd	0.022969717
159	0xbc7cad86	-0.015422231
160	0xbbf17d47	-0.0073696706
161	0x3cc6eebb	0.024283757
162	0xbc6f069c	-0.014588978
163	0xbc101ab5	-0.00879543
164	0x3cb0d9d7	0.02158825
165	0x3c52004c	0.012817454
166	0xbcc2d2f3	-0.023782229
167	0x3a7feb3f	0.00097625324
168	0xbce59d6e	-0.02802917
169	0x3d15535d	0.036456455
170	0x3c671016	0.014102956
171	0xbd2a7573	-0.041615915
172	0xbbe3bba0	-0.006949857
173	0xbcc49d46	-0.024000775
174	0xbbf0fbea	-0.0073542492
175	0x3c0c64e6	0.008568978
176	0xbcfdc49a	-0.030977536
177	0x3d15c9d8	0.036569446
178	0xbd116a2b	-0.03550164
179	0x3d226782	0.039649494
180	0x3d2471c3	0.040147554
181	0xbac46c59	-0.0014985903
182	0xbc085db2	-0.00832312
183	0x3be50563	0.0069891675
184	0xbc90aa1f	-0.017659245
185	0xbd007b8f	-0.031367835
186	0xbcced70b	-0.025249025
187	0xbc1ea5b6	-0.009683063
188	0xb7fc4aab	-3.0075511e-05
189	0xbc01089b	-0.007875587
190	0x3c2fde45	0.0107341455
191	0x3c2f6318	0.010704778
192	0xbcd1a71e	-0.025592383
193	0x3bcaa5cf	0.0061843167
194	0xbca96994	-0.020680226
195	0x3c91727b	0.017754784
196	0x3bb953eb	0.0056557558
197	0x3c16f039	0.009212547
198	0x3d088009	0.03332523
199	0xbc6a3339	-0.014294439
200	0xbcc904e0	-0.024538457
201	0x3cc588e3	0.024113124
202	0x3c7e70c5	0.015529816
203	0x3d143c12	0.0361901
204	0x3ca10df5	0.019659976
205	0xbd046326	-0.032321118
206	0xbcdfec95	-0.02733449
207	0xbd187e04	-0.037229553
208	0x3d241f8b	0.040069144
209	0xbc6a0cda	-0.014285291
210	0x3bde6bdf	0.0067877616
211	0x3cb81c0e	0.022474315
212	0x3d1ffdd6	0.039060436
213	0x3c2421ad	0.010017795
214	0x3ca8e65d	0.020617658
215	0x3bcbb67e	0.006216823
216	0x3ce8e990	0.028431684
217	0x3ce2d6b2	0.027690265
218	0x3d1339b7	0.035943713
219	0x3c7be250	0.015373781
220	0x3b856b6c	0.0040716436
221	0x3cd110de	0.025520738
222	0x3c7a1098	0.015262745
223	0x3c8fb498	0.017542168
224	0x3cd759c2	0.026287917
225	0xbd122f76	-0.035689794
226	0x3bc4cace	0.0060056215
227	0x3b5fc3ed	0.003414388
228	0xbd12e829	-0.035865936
229	0x3d0b2103	0.03396703
230	0x3bde4b7f	0.006783902
231	0x3cbd55ec	0.02311226
232	0xbcb83093	-0.0224841
233	0xbc7e6b92	-0.015528576
234	0xbd0244b1	-0.03180379
235	0x3c1b88ea	0.009493092
236	0x3d183e4b	0.037168782
237	0xbc80b2b8	-0.01571022
238	0x3d0b2d97	0.033979025
239	0x3c852e07	0.0162573
240	0xbcdb8f30	-0.026801676
241	0xbbe8f845	-0.007109674
242	0xbd26d906	-0.040734313
243	0x3b856ce5	0.004071819
244	0xbd1cbd23	-0.038266312
245	0x3c9b8305	0.018983373
246	0x3c8b6c01	0.017019274
247	0x3babd1de	0.005243524
248	0xba1e5479	-0.0006039809
249	0x3bd4f812	0.006499299
250	0x3c868298	0.016419694
251	0xbcab02ba	-0.020875324
252	0xbc275820	-0.010213882
253	0x3ab89aeb	0.0014084255
254	0x3ba43e31	0.0050122966
255	0x3ccf8fc9	0.025337117

layer1.bias f4 [175]
0	0x3cbbea48	0.022938862
1	0x3d05d3af	0.03267258
2	0x3c991e60	0.018691242
3	0xbc991cef	-0.018690554
4	0x3d214cb2	0.039379783
5	0xbce03d10	-0.027372867
6	0xb9a0a382	-0.000306394
7	0x3d1e3dd1	0.03863317
8	0xbaf3cc93	-0.0018600397
9	0xbc61ac4e	-0.013773991
10	0xbcdc731d	-0.026910359
11	0xbc8dd982	-0.01731563
12	0x3beb18e8	0.0071746
13	0x3b395be6	0.0028283536
14	0x3d286534	0.04111214
15	0xbbc76b7f	-0.0060858126
16	0xbcf55ee1	-0.029952468
17	0x3c8885c8	0.016665354
18	0xbd1885b5	-0.037236888
19	0x3c475c7d	0.012168047
20	0x3c849924	0.016186304
21	0x3ceb983c	0.028759114
22	0x3d142153	0.036164593
23	0x3c8f978c	0.017528318
24	0xbc06bdf1	-0.0082239965
25	0xbcc0c6e9	-0.023532348
26	0x3be090dc	0.006853206
27	0x3cb16500	0.021654606
28	0x3d17fee7	0.03710833
29	0xbd148564	-0.036260024
30	0xbcd44bd4	-0.025915064
31	0x3cc257ad	0.023723448
32	0x3c7fde1a	0.015616918
33	0x3d0282d3	0.031863045
34	0x3ca682a8	0.020325974
35	0xbd16d57e	-0.036824696
36	0x3c85ac16	0.016317409
37	0x3cc1431c	0.02359157
38	0xbc9d137d	-0.019174332
39	0xbcc8fbc8	-0.024534121
40	0x3d2eeccb	0.042706292
41	0x3d1d961a	0.038473226
42	0xbceba8ae	-0.028766956
43	0xbd1e6a5a	-0.038675644
44	0xbd00740d	-0.031360675
45	0xbbe5828f	-0.007004089
46	0xbd1682e4	-0.03674592
47	0xbd0aee58	-0.03391871
48	0xbcfea522	-0.0310846
49	0x3bd5f14e	0.00652901
50	0xbceb25c8	-0.028704539
51	0xbb081511	-0.002076451
52	0xbcb81572	-0.022471163
53	0xbbb2fea8	-0.0054624863
54	0x3d2490ea	0.040177263
55	0x3b1cd9b5	0.0023933474
56	0xbc5508c2	-0.013002576
57	0x3c60a27f	0.013710617
58	0x3d1022bc	0.035189375
59	0xbd08a99e	-0.033364885
60	0xbd163eca	-0.036680974
61	0x3b10550d	0.002202335
62	0x3d19975b	0.03749786
63	0x3c1852ec	0.009297114
64	0xbcf6c59b	-0.030123523
65	0x3cd781a0	0.026306927
66	0x3ce79ec7	0.028273953
67	0xbb5da5f6	-0.0033820844
68	0xbca7bec2	-0.020476703
69	0xbcc59177	-0.024117215
70	0x3cfd45a9	0.030917006
71	0xbb9115c8	-0.0044276454
72	0xbd20020a	-0.039064445
73	0x3c2c8423	0.010529551
74	0xbc5ba87c	-0.013406869
75	0x3c76c294	0.0150610395
76	0x3d292baa	0.041301407
77	0x3c43c1e4	0.011948083
78	0x3d3400a2	0.043945916
79	0xbd174788	-0.036933452
80	0xbd1e478f	-0.038642462
81	0x3c4ec915	0.012621184
82	0x3d071e67	0.03298798
83	0x3c4e5765	0.012594079
84	0xbd03a5d8	-0.032140583
85	0xbd0b980f	-0.03408056
86	0x3cb641ee	0.022248235
87	0x3d1bddbd	0.038053263
88	0x3c2cbc8d	0.010543001
89	0x3d0d3ec7	0.034483697
90	0xbc6f0e03	-0.014590743
91	0x3bcff33d	0.006346135
92	0xbcbc37fd	-0.022975916
93	0x3cfc5d68	0.030806258
94	0x3c4834fd	0.012219665
95	0x3a66f0f4	0.00088097085
96	0xbce30d3c	-0.027716272
97	0x3c48a48e	0.012246264
98	0xbccc7e1f	-0.024962483
99	0xbbcd0036	-0.0062561287
100	0x3ced665d	0.028979475
101	0xbc859006	-0.016304027
102	0x3c6adccd	0.01433487
103	0x3be98292	0.007126161
104	0xbd077a2b	-0.033075493
105	0xbd1a3915	-0.037652094
106	0xbcf16e28	-0.029471472
107	0x3c9229be	0.01784217
108	0xbc5fb3ab	-0.013653676
109	0x3c203921	0.009779246
110	0x3cb54de8	0.022131875
111	0x3c0d0376	0.008606782
112	0xbb7faefb	-0.0039014209
113	0xbb27b5cb	-0.0025590535
114	0x3d005588	0.03133157
115	0xbbe6ec81	-0.0070472364
116	0x3b9f1eb6	0.004855956
117	0x3cbecda9	0.023291426
118	0xbba28ec0	-0.004960865
119	0xbbb62ca8	-0.0055595227
120	0xbb8c4a02	-0.0042812834
121	0xbd0ccafd	-0.034373272
122	0x3d00eb9b	0.03147469
123	0xbcffed33	-0.031241035
124	0xbd278da5	-0.040906567
125	0xbcc8e50d	-0.024523282
126	0xbcb1bc16	-0.021696132
127	0x3d4394a1	0.047749165
128	0x3cc4451e	0.023958739
129	0x3d0131bc	0.03154157
130	0xbd00f153	-0.031480145
131	0xbcc7e898	-0.024402902
132	0x3d126a94	0.035746172
133	0xbc67f187	-0.014156706
134	0xbb3970d8	-0.002829602
135	0xbc9a50cd	-0.018837357
136	0x3c4264a8	0.011864819
137	0xbc6c3846	-0.0144177135
138	0xbd2196c3	-0.03945042
139	0x3bdfacec	0.006826034
140	0x3cf98750	0.03046003
141	0x3ca9ffe6	0.020751905
142	0x3be3a794	0.006947467
143	0x3cb38580	0.021914244
144	0xbd1773c9	-0.036975656
145	0x3d221018	0.03956613
146	0x3cbffa19	0.023434686
147	0xbc938895	-0.018009463
148	0x3d389961	0.04506815
149	0xbd0f6ef3	-0.03501792
150	0x3d22f2da	0.039782383
151	0x3c3e8cc7	0.011630244
152	0x3cb5c7cd	0.022189999
153	0xbc0a2615	-0.008431931
154	0x3d175316	0.03694447
155	0x39b1de1b	0.00033925552
156	0xbb009b32	-0.0019623754
157	0x3cc9a8c3	0.024616605
158	0x3c9a1c46	0.01881231
159	0xbd0fb54c	-0.035085008
160	0xbc1e1db9	-0.009650641
161	0x3ca116d7	0.019664211
162	0x3b7d674c	0.0038666306
163	0x3c9dd68c	0.019267343
164	0xbd0537ab	-0.032523792
165	0x3d03bfea	0.032165445
166	0xba8a4812	-0.0010550043
167	0xbd211119	-0.039322946
168	0xbc805beb	-0.01566883
169	0xbd0af852	-0.033928223
170	0xbce97321	-0.02849728
171	0xbcd2e279	-0.025742756
172	0xbcabd689	-0.020976322
173	0x3b59982c	0.0033202274
174	0x3c5be94d	0.013422322

output.weight f4 [1, 175]
0	0x3d1b3f6e	0.03790229
1	0xbd8cf6a3	-0.0688298
2	0x3cf8cc91	0.030370982
3	0x3d994d7e	0.074854836
4	0xbc510bb0	-0.012759134
5	0x3ca6fa31	0.020382972
6	0x3d3dfa98	0.046381563
7	0x3da0ea23	0.07857158
8	0x3daceb09	0.08443267
9	0xbc64f428	-0.013974227
10	0xbc47ca11	-0.0121941725
11	0x3c338a14	0.010958213
12	0xbd0e1a4c	-0.034693047
13	0x3ce5975f	0.02802628
14	0x3d7cafb2	0.061690994
15	0x3ceaac25	0.028646538
16	0xbd60f198	-0.0549179
17	0x3d1e711a	0.03868208
18	0xbd88e9e6	-0.066852376
19	0x3ced87fa	0.028995503
20	0xbd830722	-0.06397845
21	0xbcf47f0c	-0.029845737
22	0x3cb53113	0.022118127
23	0xbd33616c	-0.04379408
24	0xbd8f8e02	-0.07009508
25	0x3c0c39e1	0.008558721
26	0x3d872776	0.065993235
27	0xbd035976	-0.03206774
28	0xbd377ae5	-0.044794936
29	0x3ceaf00c	0.028678916
30	0xbbc911a8	-0.006136138
31	0x3daf1b31	0.08550108
32	0x3d899710	0.06718266
33	0x3ccf0cd6	0.025274675
34	0x3d6f1c9a	0.058376886
35	0x3ce6ef82	0.028190378
36	0xbd949f4c	-0.07256946
37	0x3cb08216	0.021546405
38	0xbd458543	-0.04822279
39	0xbcf4c193	-0.02987746
40	0x3d081eca	0.033232488
41	0x3d1012ac	0.035174057
42	0xbbf56e7b	-0.007489977
43	0xbdb011ec	-0.08597168
44	0xbca7bac9	-0.020474808
45	0x3b9e8a88	0.0048382916
46	0x3c383238	0.011242442
47	0xbc66852d	-0.0140698375
48	0x3d240d62	0.040051825
49	0x3d0bfac4	0.034174696
50	0x3c4f46b4	0.012651134
51	0x3d506530	0.05087775
52	0xbd88227f	-0.066472046
53	0xbd28da75	-0.04122396
54	0x3baab399	0.005209398
55	0xbd88b744	-0.0667558
56	0x3db490e8	0.08816701
57	0x3c94f03c	0.018180959
58	0x3d17ba08	0.037042648
59	0xbd1fd50d	-0.03902154
60	0xbd649a91	-0.05581147
61	0x3d1671bf	0.03672957
62	0x3c7d0038	0.015441947
63	0x3d545dae	0.051847152
64	0xbd832573	-0.06403627
65	0xbd62f3ec	-0.055408403
66	0x3d9ecc45	0.07753805
67	0xbcd7e6f0	-0.026355237
68	0xbd318817	-0.043342676
69	0x3cc6b5a0	0.024256527
70	0x3d00d960	0.031457305
71	0xbcd824de	-0.026384767
72	0xbd6373f1	-0.055530492
73	0xbbe24d05	-0.006906154
74	0x3c057889	0.008146414
75	0xbade0380	-0.0016938299
76	0xbd2bced7	-0.041945305
77	0xbd8b0e26	-0.06789808
78	0x3d3b41de	0.045717113
79	0xbd8b619d	-0.06805728
80	0x3cb0ba58	0.02157323
81	0xbd5de5db	-0.054174285
82	0x3d6129cc	0.0549715
83	0xbd819d6e	-0.063288555
84	0xbd49ae01	-0.04923821
85	0xbd566ad9	-0.05234799
86	0x3d1a8841	0.037727598
87	0x3d1f04c4	0.038822904
88	0x3da637cc	0.08116111
89	0x3d8e3d7e	0.069453225
90	0xbbe7c2a4	-0.0070727635
91	0xbc12079a	-0.008912945
92	0x3c0f25da	0.008737052
93	0x3d7bcdf1	0.061475698
94	0xbc54c518	-0.012986444
95	0xbd80fd8a	-0.06298359
96	0x3d436a4c	0.047708794
97	0x3b0295bb	0.0019925672
98	0x3c6c7c3e	0.0144339185
99	0xbd1ae655	-0.037817318
100	0x3d4772fd	0.048693646
101	0xbd1b702b	-0.03794877
102	0xbd593615	-0.053030092
103	0x3d07ede5	0.03318586
104	0xbd84a1cb	-0.06476172
105	0xbcbf0305	-0.02331687
106	0xbca20681	-0.019778492
107	0xbc88a74a	-0.016681332
108	0x3b88dcf4	0.0041767303
109	0xbd084337	-0.033267226
110	0x3d18c9fe	0.03730201
111	0xbce6f097	-0.028190894
112	0x3d81462e	0.06312214
113	0xbd69c632	-0.05707378
114	0xbc834972	-0.016026232
115	0xbd65134e	-0.055926614
116	0xbd66a99b	-0.056314092
117	0xbc10d6bc	-0.008840259
118	0xbd809b65	-0.06279639
119	0x3d6fd4e6	0.058552645
120	0x3d3088af	0.0430991
121	0x3c34a4c1	0.0110256085
122	0x3cf2b9e2	0.029629651
123	0x3c78103e	0.015140591
124	0xbd29b68d	-0.04143386
125	0x3c6a5713	0.014302987
126	0xbd35848c	-0.04431586
127	0x3cb55214	0.022133864
128	0x3d7582c0	0.059939146
129	0xbd4d732a	-0.050158657
130	0xbd9a274e	-0.07527028
131	0xbbfb19ab	-0.007662972
132	0xbb89b78d	-0.004202789
133	0x3d8ae286	0.06781487
134	0x3d9ed60c	0.0775567
135	0x3d02bcf9	0.0319185
136	0xbd1c4e0f	-0.03816038
137	0xbc17d120	-0.009266168
138	0xbd8f00c7	-0.0698257
139	0xbc375c3f	-0.011191427
140	0x3cd3996c	0.025829993
141	0xbd62764e	-0.055288605
142	0x3d59fc24	0.053218976
143	0x3d2bddc8	0.041959554
144	0xbc98460f	-0.018588094
145	0x3d79389b	0.060845
146	0x3d5b3de9	0.05352584
147	0x3d71ef5c	0.05906616
148	0xbd9eba61	-0.07750393
149	0xba587bc7	-0.00082581904
150	0x3db72f04	0.089445144
151	0xbc9cc5b6	-0.019137245
152	0xbd39c10a	-0.045350112
153	0xbcfed151	-0.03110567
154	0x3d37d249	0.044878278
155	0x3d631b92	0.055446215
156	0xbd87a9db	-0.06624194
157	0xbce247a5	-0.027622053
158	0xbd6af0db	-0.057358604
159	0xbd930c4b	-0.07180079
160	0xbbe4bbe4	-0.006980406
161	0x3d13660a	0.035985984
162	0x3d24a8df	0.04020011
163	0x3d40d512	0.0470782
164	0x3d8bc2e9	0.068242855
165	0xbd929a7a	-0.0715837
166	0x3c190554	0.009339649
167	0xbd4cf8dd	-0.050042022
168	0x3db09dda	0.08623858
169	0x3d0b78ef	0.034050878
170	0xbd3ddb06	-0.046351455
171	0x3c4bb8f8	0.012434237
172	0x3d929bde	0.071586356
173	0xbd106ccd	-0.03526001
174	0x3d19bcc5	0.03753354
